AI Builders/Compound Words Model trainer/compound_words_model.pt (torch, 18403 bytes, 3 tensors)

embedding.weight f4 [65, 64]
-0.38917637 -0.32038414 0.4690643 0.007971585 -0.49273616 -0.15401661 0.014279127 0.3058713
0.406866 0.23692697 0.39920825 -0.4342603 -0.35675538 -0.38353056 -0.2677638 0.16311187
-0.33078086 0.37400997 -0.14531153 -0.21903843 -0.42105418 -0.39136523 -0.30855602 -0.18396306
0.26123816 0.20523196 0.10165638 0.032346785 -0.02834785 0.4582116 -0.19221967 0.050288975
-0.1846301 -0.26848978 -0.15523356 -0.4744935 -0.34589744 0.28368288 0.2755282 0.29417515
0.3376475 0.43485522 0.108012795 -0.20054775 0.26420957 0.28718412 -0.14145017 -0.19265264
-0.11963749 -0.083440185 -0.339701 0.08628893 -0.4650743 -0.12688202 0.32931614 -0.328794
-0.38267285 -0.048618197 0.3198766 0.045960784 -0.030903816 -0.04855442 -0.4474842 -0.15707469
0.21103962 0.20931724 -0.06364094 0.10569109 -0.14100431 0.21400826 -0.12873344 0.4769932
0.26409626 0.18506446 0.3009665 -0.3658216 -0.018459616 0.25386715 -0.016029956 -0.1359066
-0.21954012 -0.50565445 -0.37551382 0.4039593 0.1491471 -0.5134699 0.34851626 0.36464548
-0.22707796 0.2160649 0.23610795 -0.30270535 -0.0664459 0.23735113 0.4788777 0.15339176
-0.033480354 -0.17484404 0.30389145 -0.07967584 0.06615984 -0.30749363 -0.049574424 -0.009496471
-0.3979361 -0.025557386 0.17305747 0.24904774 -0.0024775323 -0.19012985 0.14528191 -0.14428407
0.0095721595 -0.3426745 0.1092046 -0.42579713 0.25939196 0.31393886 0.36508092 0.4801953
0.45488933 0.44203967 0.12299395 0.16802178 0.20342062 0.05716779 0.051542833 0.1255542
-0.16027895 -0.342476 -0.22403727 -0.2412929 0.3269505 0.12373252 -0.21838936 -0.4375394
-0.0903714 -0.061352428 0.18627961 0.23834355 -0.045947973 -0.34295315 -0.5167894 -0.68360966
0.20483726 -0.26969752 0.17217565 -0.3762804 0.21204834 -0.31298622 -0.28943735 -0.24417168
0.053360533 0.48467436 0.16293299 0.16304958 0.1863499 0.26091495 0.17176108 -0.15434463
-0.22075737 -0.2217055 -0.30435562 -0.4095928 0.32038808 0.017219776 0.37411857 0.19566381
-0.13258083 0.25873446 -0.02462871 0.21853082 -0.5033143 0.3884406 -0.5065472 0.33691108
-0.24853636 0.5028012 0.5372715 0.5690803 0.004177748 0.53477216 -0.07470998 0.038028035
0.22494346 -0.34414226 0.015536706 0.48638964 -0.0943169 0.1923128 0.5172949 -0.10563158
0.17341965 -0.26050013 -0.28071013 0.17572136 0.31586856 -0.074636504 0.09577502 -0.23233484
-0.3516425 -0.34898788 -0.37732643 -0.07761496 -0.43189836 -0.44951576 0.22101863 -0.54432476
-0.6453373 0.41123804 -0.5566787 0.22320071 0.32160807 0.13495068 -0.054545052 -0.25467518
-0.14655235 0.29312196 -0.24111074 -0.12402035 -0.21233815 -0.35176945 0.09608117 0.12463535
0.1918449 -0.541664 -0.1068289 -0.4874966 0.2586802 0.44273448 -0.20655014 0.33616215
-0.40296528 -0.5713452 0.4520521 0.3830334 -0.043538816 0.1321026 -0.2342275 0.2156144
0.024425471 -0.13144861 0.34157524 0.17189857 0.2769196 -0.2434882 0.38204676 0.4706349
0.019958317 0.08450476 -0.02844171 0.10576717 0.24108385 0.42938855 0.53667945 -0.32265583
00000000: 2042 c7be 6409 a4be 3229 f03e 409b 023c
00000010: ea47 fcbe 88b6 1dbe 00f3 693c 2a9b 9c3e
00000020: be50 d03e fc9c 723e 0665 cc3e 5e57 debe
00000030: a4a8 b6be 1e5e c4be 5618 89be cc06 273e
00000040: 1c5c a9be 3c7e bf3e 8ccc 14be 9c4b 60be
00000050: 6a94 d7be 0661 c8be 0efb 9dbe d060 3cbe
00000060: 02c1 853e 5428 523e 3831 d03d 107e 043d
00000070: c039 e8bc b69a ea3e 3cd5 44be d0fb 4d3d
00000080: ac0f 3dbe 7e77 89be 8cf5 1ebe d0f0 f2be
00000090: 7819 b1be e23e 913e 0812 8d3e 209e 963e
000000a0: 22e0 ac3e 58a5 de3e d035 dd3d 645c 4dbe
000000b0: 7a46 873e cc09 933e 50d8 10be bc46 45be
000000c0: 8004 f5bd b0e2 aabd 4aed adbe 40b8 b03d
000000d0: 381e eebe 5ced 01be 209c a83e b057 a8be
000000e0: b2ed c3be e023 47bd dec6 a33e 6041 3c3d
000000f0: 002a fdbc 00e1 46bd a61c e5be 30d8 20be
00000100: c51a 583e 4257 563e 2e56 82bd 9274 d83d
00000110: 6f63 10be fb24 5b3e b3d2 03be 7438 f43e
00000120: a037 873e 8a81 3d3e 4818 9a3e f84c bbbe
00000130: 9f38 97bc e0fa 813e 4151 83bc 1a2b 0bbe
00000140: 20cf 60be 9272 01bf 5943 c0be c1d3 ce3e
00000150: 04ba 183e c372 03bf b970 b23e d0b2 ba3e
00000160: 2087 68be 1e40 5d3e 48c6 713e 32fc 9abe
00000170: ca14 88bd 2d0c 733e 752f f53e bb12 1d3e
00000180: b222 09bd 510a 33be a997 9b3e 162d a3bd
00000190: cf7e 873d ce6f 9dbe 8d0e 4bbd 1697 1bbc
000001a0: 48be cbbe b95d d1bc fa35 313e 5f06 7f3e
000001b0: 185e 22bb 66b1 42be c8c4 143e 34bf 13be
000001c0: 8cd4 1c3c 0873 afbe a9a6 df3d 1502 dabe
000001d0: 06cf 843e 98bc a03e e3eb ba3e 29dc f53e
000001e0: 41e7 e83e 0653 e23e 41e4 fb3d e70d 2c3e
000001f0: 7f4d 503e c628 6a3d 941e 533d 4891 003e
00000200: 2a20 24be 0459 afbe 076a 65be 7c15 77be
00000210: 0e66 a73e 7a67 fd3d 76a1 5fbe 2a05 e0be
00000220: a414 b9bd af4c 7bbd 15c0 3e3e 5510 743e
00000230: f133 3cbd 8e97 afbe 4f4c 04bf 0b01 2fbf
00000240: dcc0 513e cb15 8abe d04e 303e d3a7 c0be
00000250: 3323 593e bb3f a0be 2231 94be 2408 7abe
00000260: 9390 5a3d 3d27 f83e e8d7 263e 78f6 263e
00000270: 82d2 3e3e a596 853e 23e2 2f3e 850c 1ebe
00000280: 380e 62be c406 63be 80d4 9bbe 26b6 d1be
00000290: e809 a43e 7d10 8d3c 788c bf3e 185c 483e
000002a0: 45c3 07be d878 843e 26c2 c9bc 8bc6 5f3e
000002b0: 35d9 00bf b0e1 c63e 14ad 01bf 9c7f ac3e
000002c0: 5180 7ebe 94b7 003f a08a 093f 3faf 113f
000002d0: 7ee5 883b d4e6 083f 8c01 99bd 49c3 1b3d
000002e0: 9457 663e 6a33 b0be ab8d 7e3c 1008 f93e
000002f0: 3829 c1bd a6ed 443e 706d 043f 5f55 d8bd
00000300: ec94 313e 4660 85be 3db9 8fbe 4df0 333e
00000310: 86b9 a13e 06db 98bd b225 c43d 2fe9 6dbe
00000320: 7c0a b4be 8aae b2be ee30 c1be 98f4 9ebd
00000330: c821 ddbe ee26 e6be b552 623e de58 0bbf
00000340: d334 25bf cb8d d23e 7f82 0ebf ba8e 643e
00000350: d0a9 a43e 8330 0a3e a26a 5fbd c964 82be
00000360: d211 16be 1514 963e bce5 76be 62fe fdbd
00000370: 2c6f 59be 201b b4be 34c6 c43d d240 ff3d
00000380: fd72 443e 7eaa 0abf 1cc9 dabd 2899 f9be
00000390: bb71 843e 18ae e23e e181 53be 721d ac3e
000003a0: 7751 cebe ae43 12bf 5f73 e73e f41c c43e
000003b0: c255 32bd e745 073e 55d9 6fbe 05ca 5c3e
000003c0: ed17 c83c 779a 06be f3e2 ae3e 2e06 303e
000003d0: 68c8 8d3e f854 79be a29b c33e 0ff7 f03e
000003e0: a07f a33c d510 ad3d 97fe e8bc 759c d83d
000003f0: afde 763e d1d8 db3e d363 093f 2533 a5be

fc.weight f4 [2, 64]
0.27931875 -1.0028576 -0.5256655 0.36959046 0.43747056 -0.3909036 -0.2666972 -0.29428813
-0.48718283 -0.08160355 -0.08526981 0.71675116 -0.3716736 -0.1688712 -0.1526442 -0.8460841
-0.69243646 0.35648665 -0.370109 0.24246186 0.61211294 0.48565724 0.22132932 0.25282365
-0.26369148 0.49768683 -0.32991323 0.1449709 0.12139931 0.022245748 0.43110225 0.07244896
-0.19485895 -0.24025209 -0.70748466 -0.32570058 0.35123882 -0.30546454 -0.53307503 0.50579876
-0.024921855 -0.63609153 0.6957191 -0.18357068 -0.7562946 0.10382244 -0.23694526 0.3504347
-0.26167238 0.68498486 0.74804145 0.50612503 -0.5415123 0.83844244 -0.15062648 0.41302815
-0.21916391 -0.62054414 0.16860971 -0.12201787 -0.042326193 0.17449777 0.828792 -0.1326967
0.27387285 0.99524164 -0.24646372 -0.30844638 0.46069556 -0.457705 -0.10617568 0.0567352
0.468622 -0.15548867 0.26216498 -0.21535107 -0.2206445 0.49367252 0.24636424 0.5834668
0.6173254 -0.048981693 0.40642157 0.47082978 -0.574683 -0.42904538 -0.63985413 0.21431999
-0.18048815 0.005731723 0.3430515 0.21000515 -0.21411915 0.25868577 0.15926027 0.4985741
0.59448165 0.65511024 -0.0348277 0.13003197 -0.40582186 -0.4542858 0.14038895 0.034565363
0.4790962 0.14656289 -0.5523421 0.16301441 0.6461931 0.25799996 -0.095959224 0.041435014
0.63041043 -0.60744333 -0.42776662 -0.6167712 0.3288106 -0.4235887 0.3157633 0.3896325
0.71273553 0.39174983 -0.12714604 -0.6247303 -0.25444794 0.25077832 -0.8641382 0.34355634
00000000: de02 8f3e a35d 80bf 0492 06bf f63a bd3e
00000010: 24fc df3e 8424 c8be 898c 88be efac 96be
00000020: 0770 f9be c31f a7bd f0a1 aebd 017d 373f
00000030: 014c bebe 92ec 2cbe c34e 1cbe f898 58bf
00000040: 8443 31bf 6b85 b63e ed7e bdbe ec47 783e
00000050: 6fb3 1c3f 11a8 f83e 27a4 623e 1a72 813e
00000060: 9202 87be cfd0 fe3e 63ea a8be 4073 143e
00000070: 34a0 f83d b73c b63c 6fb9 dc3e 1f60 943d
00000080: 1b89 47be a504 76be b71d 35bf 3ac2 a6be
00000090: 93d5 b33e d965 9cbe 9b77 08bf 077c 013f
000000a0: eb28 ccbc e5d6 22bf a61a 323f f4f9 3bbe
000000b0: 869c 41bf dca0 d43d c7a1 72be 2d6c b33e
000000c0: ecf9 85be 2b5b 2f3f a57f 3f3f 6991 013f
000000d0: 8da0 0abf 2aa4 563f d43d 1abe 6d78 d33e
000000e0: 816c 60be fbdb 1ebf 06a8 2c3e 81e4 f9bd
000000f0: 3b5e 2dbd 8baf 323e b62b 543f a5e1 07be
00000100: 1039 8c3e 28c8 7e3f fc60 7cbe afec 9dbe
00000110: 4ae0 eb3e 4f58 eabe a372 d9bd 2b63 683d
00000120: 39ef ef3e 6c38 1fbe 7d3a 863e fe84 5cbe
00000130: a2f0 61be a5c2 fc3e e846 7c3e 155e 153f
00000140: 0a09 1e3f 07a1 48bd 7d16 d03e 9a10 f13e
00000150: 6d1e 13bf d6ab dbbe 7bcd 23bf b376 5b3e
00000160: e3d1 38be 2dd1 bb3b 72a4 af3e 970b 573e
00000170: 0d42 5bbe 7672 843e 2015 233e 1b45 ff3e
00000180: f32f 183f 4eb5 273f 7ea7 0ebd 1a27 053e
00000190: e2c7 cfbe 2698 e8be 1fc2 0f3e 6994 0d3d
000001a0: 194c f53e 9514 163e 4b66 0dbf 40ed 263e
000001b0: e96c 253f 9218 843e 4586 c4bd c3b7 293d
000001c0: 9462 213f 6881 1bbf 3a04 dbbe b8e4 1dbf
000001d0: dd59 a83e 9ee0 d8be baab a13e e97d c73e
000001e0: d675 363f 6f93 c83e 9232 02be 53ee 1fbf
000001f0: 0047 82be 0466 803e 2938 5dbf 9ee6 af3e

fc.bias f4 [2]
-0.14955908 0.14955913
00000000: 0426 19be 0726 193e
