AI Builders/Compound Words Model trainer/compound_words_model.pt (torch, 35299 bytes, 3 tensors)

embedding.weight f4 [131, 64]
000000 04 18 5f be ce de d0 3e bc 08 a2 be e0 90 27 3d
       -0.21786505 0.40794986 -0.3164729 0.040909648
000010 6c 33 4d 3e f0 fe c9 3e 72 8f c9 3e c8 d5 15 be
       0.20039147 0.39452314 0.39367253 -0.14632332
000020 4a 4c 93 be 82 39 b2 be b4 f9 af 3e f8 e0 9f 3e
       -0.2876914 -0.348095 0.34370196 0.31226325
000030 ec bf 59 be a8 1b fe 3e 28 b0 86 be 10 2a 42 3d
       -0.21264619 0.49630475 -0.26306272 0.047403395
000040 34 fd 6c be 00 55 80 bb c4 52 c7 3e e0 25 3c be
       -0.23143464 -0.003916383 0.38930333 -0.18373823
000050 0c 5c 2e be fc 5d d0 be 8a 31 be be 10 ea 4e be
       -0.170273 -0.40696704 -0.3714717 -0.20206475
000060 4c e6 96 3e da 58 c1 3e 2e d0 c4 be ec 39 06 be
       0.29472578 0.377631 -0.38440078 -0.13108033
000070 20 2f 5e 3d 84 e2 66 3e ee 2e ae 3e 54 f6 89 3e
       0.05424416 0.22547346 0.3402018 0.26945746
000080 68 1d a7 3e a0 ab 4c be c8 bf ad 3e fe 1f a4 be
       0.32639623 -0.19987345 0.3393538 -0.32055658
000090 4a 75 f4 3e 88 f2 9f be 80 62 eb 3d 00 fc 28 bb
       0.47745734 -0.31239724 0.11493397 -0.002578497
0000a0 a6 07 a8 3e 50 5b 66 3d 6c 02 8a 3e 5c 2c 2e be
       0.32818335 0.056239426 0.26954973 -0.1700911
0000b0 98 9a 45 3e 08 b2 d1 3d 18 b4 a9 3d 60 e1 da 3c
       0.19297254 0.10239035 0.08286303 0.026718795
0000c0 08 f4 d8 3d 50 fc c3 3d b6 25 a9 be 50 f6 8a 3e
       0.1059342 0.09569609 -0.33036584 0.27141047
0000d0 0a 3c de be 88 cd d9 3e 48 e6 a2 be a0 b1 ba 3c
       -0.4340518 0.4253962 -0.31816316 0.022789776
0000e0 14 10 9e 3e 8a b5 88 be 60 fe 6f 3d be aa d6 3e
       0.30871642 -0.26701003 0.0585922 0.4192714
0000f0 5e 48 a8 3e 6a a1 da be a6 59 b4 be 40 ab f0 3c
       0.32867712 -0.42701274 -0.35224646 0.029378533
000100 e9 b4 0c be 15 fc f6 be 43 6b b5 3e d3 a6 a9 3e
       -0.13740887 -0.48239198 0.35433397 0.3313509
000110 25 b9 a8 3e 55 52 84 3e 2f e6 bd 3e f9 80 b9 3d
       0.32953754 0.25844064 0.3708968 0.09057803
000120 f1 d8 8c bc 89 25 d3 be 95 41 01 3e 92 f3 7c 3e
       -0.01719329 -0.41239575 0.12622674 0.2470229
000130 b0 0f ba 3e 0e 19 d5 3e 52 20 cf bd 9a 9e 90 3e
       0.36340094 0.41620678 -0.101135865 0.28246003
000140 f3 2e a3 be 4a 7d f6 be be c5 15 be 4e 95 b8 3e
       -0.31871757 -0.48142463 -0.14626214 0.3605141
000150 c9 1d 65 be fe 97 ce bd 54 a1 92 be e2 22 22 be
       -0.22374643 -0.10087584 -0.2863871 -0.15833619
000160 05 34 a5 3e a9 1f fa be 5c ab af bd 53 89 93 be
       0.3226625 -0.4885228 -0.08577606 -0.28815708
000170 67 68 a0 3e f5 18 96 bd a5 15 82 bd 64 74 e5 be
       0.31329653 -0.07328979 -0.063517846 -0.44815361
000180 6d fc cd be ef df 29 be fe 1b a9 be 81 7f b2 3e
       -0.40231648 -0.1658933 -0.3302917 0.34862903
000190 42 69 39 3e c3 c3 a7 be 75 9f 2f 3e 80 0c 87 be
       0.18106559 -0.32766542 0.17150672 -0.26376724
0001a0 f7 ae 39 3c 77 79 d6 3e bc be c0 bd bf c1 8a 3e
       0.011333219 0.41889545 -0.0941138 0.27100942
0001b0 4a 32 48 bd 39 ec 80 3d 19 c6 c7 3b c7 a4 36 3d
       -0.048876084 0.06295056 0.006096613 0.044590738
0001c0 23 ef ce bd b9 36 80 be 54 5d e7 3e 5e 64 ed 3e
       -0.101042055 -0.2504175 0.4518839 0.46365637
0001d0 15 3f c4 3e 59 b2 7a bd 0f 47 95 be 2c 97 04 bf
       0.38329378 -0.06120524 -0.29155776 -0.5179317
0001e0 4e d1 62 be b6 b7 89 3e 04 6d 1a 3e 28 02 f0 be
       -0.22150156 0.26897973 0.15080649 -0.46876645
0001f0 bb 65 f3 3e 16 0d bd 3e e8 7e 7d be 14 45 fa 3e
       0.47538552 0.36924046 -0.24755442 0.48880827
000200 05 92 c6 be 12 74 42 3e 5f 61 7f bd 5d bf a9 3d
       -0.3878328 0.1898959 -0.06234872 0.08288453
000210 23 60 f5 be 38 50 a1 bc d0 ad 6e bd 6e 60 53 be
       -0.4792491 -0.019691572 -0.05827123 -0.20642254
000220 fa 3f a1 3e b1 7d b4 bd 38 04 4e 3e 25 10 0b 3e
       0.31494123 -0.08813036 0.20118797 0.13580377
000230 f4 1c 8c 3e 33 5d cf 3e c2 a5 0f 3e 6f a4 24 3e
       0.2736584 0.40500793 0.14028075 0.16078351
000240 f4 de 81 be e6 e6 2a be 65 26 68 3e 98 bc ec 3e
       -0.25365412 -0.16689643 0.22670896 0.46237636
000250 66 02 00 3f 64 50 10 be a2 cc bf be 05 d0 ed 3e
       0.5000366 -0.14093167 -0.3746081 0.4644777
000260 2f b2 3e be e1 ee c3 3d 6a dd 77 3e 10 ca 85 3e
       -0.18622659 0.09567047 0.24205557 0.26130724
000270 c1 2e a1 bd 3c eb ca 3e 23 e8 b5 3b 0a 1e dd 3d
       -0.07870246 0.39632595 0.0055513545 0.10796745
000280 2a 47 9f be 14 bd d6 bd d3 4e 6b be c7 68 89 3e
       -0.3110898 -0.104852825 -0.22979288 0.2683775
000290 5e c0 d3 bd 37 8b b9 be 0e f0 98 be 39 24 dd 3e
       -0.103394255 -0.36239025 -0.29870647 0.43191698
0002a0 2c 71 05 3e 0f 63 54 be 95 b9 b3 3d 18 9a 89 3e
       0.13031453 -0.20740913 0.08775631 0.26875377
0002b0 b1 ac ce be e8 cc bd bb 72 a7 e0 bd 42 64 ca bd
       -0.40366128 -0.005792249 -0.10969438 -0.09882404
0002c0 0b 95 3a 3e 50 87 9e 3e ee e0 22 3e 5f 79 8e 3e
       0.18220918 0.3096261 0.15906116 0.27826974
0002d0 4c 85 ba 3d f2 4a 02 3d 08 46 c3 3d c7 69 9f 3d
       0.091074556 0.031809755 0.09534842 0.07783847
0002e0 f7 4a a9 be 82 9f d0 be 23 13 5e be 84 40 f1 3e
       -0.33065006 -0.40746695 -0.21686988 0.47119534
0002f0 17 0a ae be 3b d1 c1 be 09 98 e1 bb 5e 21 cf 3e
       -0.33992073 -0.37854943 -0.006884579 0.40455145
000300 ce 6b 41 be be 89 67 be 22 92 be be b1 c0 db 3e
       -0.1888878 -0.22611138 -0.37220865 0.4292045
000310 cf 1a ba 3d 72 21 f5 be 26 ec 18 3e f8 14 db 3e
       0.090871446 -0.4787708 0.14933833 0.42789435
000320 29 db 80 bd 46 cc c0 3e ce 98 f7 be 66 17 b8 bd
       -0.062918015 0.37655848 -0.48358768 -0.08988838
000330 78 ea b0 3e 1d f5 05 3f fd 7c 9a 3b 0b 79 f0 3e
       0.34553885 0.5232714 0.004714607 0.46967348
000340 75 97 7e 3e 79 2b 95 bc 9d af 91 3e 54 4c 40 3c
       0.24862464 -0.018209206 0.28454295 0.011736948
000350 38 44 57 be a3 33 22 3e 70 c0 85 be 05 ad f8 be
       -0.21022117 0.1584001 -0.2612338 -0.48569503
000360 d6 8d eb be ab 18 96 bd 4e eb cd 3d 90 e1 cf 3e
       -0.4600665 -0.07328924 0.100546464 0.40601778
000370 54 62 74 3e 09 f4 a2 bc ae 65 6d be 45 11 1d 3d
       0.23865634 -0.019891756 -0.23183319 0.038346548
000380 da fe c8 3d e4 77 90 3c a3 db b5 3e 24 9b 1b 3f
       0.09814234 0.017635293 0.35519132 0.607836
000390 c8 0c e7 be a9 4f dd be 5c 86 5a bd 72 c1 c1 be
       -0.4512694 -0.43224838 -0.05335079 -0.378429
0003a0 34 de d5 3e 82 c5 80 3d d0 b3 b2 be 24 01 04 3f
       0.4177109 0.062876716 -0.3490281 0.5156424
0003b0 a1 7c af 3e 9a 33 57 be 94 4a 7e be 2b 0b 78 be
       0.34274772 -0.21015778 -0.24833137 -0.2422301
0003c0 73 61 e5 be f7 7c 5f be c6 d8 05 3f d7 72 a4 be
       -0.4480091 -0.21825014 0.52283895 -0.32118866
0003d0 d8 a3 f0 3e b3 66 f0 be 57 2c 15 3f 14 23 b2 be
       0.47000003 -0.46953353 0.5827078 -0.34792387
0003e0 b5 40 0d 3f 22 c3 07 be db 2e f5 be 5f 74 89 be
       0.5517686 -0.13258031 -0.4788731 -0.26846597
0003f0 45 9f 41 be bc 5e fd be 52 8a 91 3e 1c 3d 71 3e
       -0.18908413 -0.4948634 0.28425843 0.23558468

fc.weight f4 [2, 64]
000000 e8 f4 4a bf dc 37 7d bf ad 54 dd bd 07 0f d7 3e
       -0.7927995 -0.9891336 -0.10807166 0.42003652
000010 b2 ec 27 bd b4 57 c3 be 3e 23 11 bf c9 46 3f 3d
       -0.040997215 -0.3815285 -0.566944 0.046698365
000020 62 5a ee be f2 d7 9b 3d d4 d4 30 bf 3d 31 22 bf
       -0.46553332 0.07609548 -0.6907475 -0.6335638
000030 b4 9c be 3e 94 52 16 3f 90 0f de 3e c7 ba a8 3e
       0.3722893 0.58719754 0.43371248 0.32955
000040 fe 88 45 3f 29 5f 7a 3e f9 bb e1 3e d7 57 ee bd
       0.7716216 0.24450363 0.44088724 -0.11637848
000050 27 87 38 bf e7 4e 13 bf d9 24 75 be 72 40 03 bf
       -0.72081226 -0.5754227 -0.23939838 -0.5127021
000060 d9 b8 56 be 69 d4 b5 be d0 8e 03 bf 4f 1a 1b bf
       -0.20968951 -0.3551362 -0.5138979 -0.6058702
000070 39 b3 03 3f 49 c0 85 3e 4e ac 39 bf f0 0f 57 3e
       0.5144535 0.26123264 -0.7252854 0.21002173
000080 7f ab 58 be a8 1d d0 3e 63 ce 65 3e 1d 34 6a 3f
       -0.2115917 0.40647626 0.22442012 0.9148577
000090 30 3b 89 bd ae 5a 8f be 0d 99 ed be 3e 2c 1f be
       -0.06700742 -0.2799887 -0.4640583 -0.15544221
0000a0 82 9d 34 3e a1 bf 20 3f ca a4 27 3f 85 7b 76 3e
       0.1763821 0.627924 0.65485823 0.24070556
0000b0 b3 56 de 3b de 9e 92 3e 82 06 ac 3d c0 34 a1 3e
       0.0067852377 0.2863683 0.08399679 0.31485558
0000c0 81 8b f5 be 4c 8a de be a8 0a 07 be a1 e4 23 bd
       -0.47957996 -0.43464887 -0.13187659 -0.04001296
0000d0 1e 62 34 3f 4e c7 bb bd ef 51 cc 3e 90 9b ec be
       0.70462215 -0.09168874 0.3990626 -0.46212435
0000e0 8b 5d 65 3f 16 f0 03 3f 8a ce 75 bd 91 98 2c 3f
       0.8959586 0.5153822 -0.060011424 0.674203
0000f0 10 b1 3c bd 31 56 1e bf f9 02 07 3f 51 91 db 3e
       -0.046067297 -0.6185027 0.5273891 0.42884305
000100 71 c9 2a 3f 5f 7c 3e 3f 52 12 2d bf 7f ba e4 be
       0.66713625 0.74408525 -0.6760608 -0.44673535
000110 48 64 1f 3c b4 db 02 be d7 63 ef 3e fc 0e 42 3e
       0.009728499 -0.12779123 0.4675586 0.18951029
000120 6f 8f 64 be 86 d9 8b bc c9 4f c7 bd 74 14 19 3f
       -0.2232034 -0.017071497 -0.09732015 0.59796834
000130 60 4b 8c be f9 7d b8 be 4e 4b b1 3a d5 5c 17 3e
       -0.27401257 -0.3603361 0.0013526471 0.14781506
000140 82 67 41 bf 38 0d 48 3d d0 e8 2c 3d 58 a9 13 3f
       -0.75548565 0.04884073 0.042214215 0.57680273
000150 6a e0 61 3f a0 53 fb 3e 78 fe 8d 3e 42 ee 62 3d
       0.88233054 0.49087238 0.27733207 0.055403
000160 c2 d3 fe 3e e8 48 b4 bc 11 0d 81 3f 87 76 9e 3d
       0.49770933 -0.02200742 1.0082113 0.07737451
000170 9e 96 6b bc 55 ef fb 3e 20 40 b4 3e 54 35 b2 3e
       -0.014379172 0.49206033 0.35205173 0.3480631
000180 68 9d d8 3b 88 74 a1 3d 42 2b 82 3e e5 e2 53 bf
       0.006610561 0.07883555 0.25423628 -0.8276809
000190 8c 2f 4d 3f 5b a4 f2 3e 6d 06 d2 3d 2f 2f 06 be
       0.80150676 0.47391018 0.10255132 -0.13103937
0001a0 73 17 c9 3e c1 c4 56 be 91 25 54 be 46 5e 4a be
       0.39275703 -0.20973493 -0.20717455 -0.19762525
0001b0 e1 11 f6 3d 7d fd 00 be 58 4a 3c 3e 22 35 43 be
       0.12015129 -0.12596698 0.18387735 -0.19063237
0001c0 9b b0 16 be a0 d5 2f 3e 86 d8 d6 bc 77 1c 5a be
       -0.14715807 0.17171335 -0.026226293 -0.21299921
0001d0 69 e9 2d bf c4 26 e2 3d db b0 95 be af 14 ac 3e
       -0.6793428 0.1104255 -0.29236493 0.3360953
0001e0 21 be 68 bf 97 69 ac be c2 83 89 3e 1c 42 bf bc
       -0.90915114 -0.3367431 0.26858336 -0.023346953
0001f0 41 c5 fb 3d 34 3b 6d be 60 72 04 bf f4 ec 18 bb
       0.122934826 -0.23167115 -0.5173702 -0.0023334594

fc.bias f4 [2]
000000 e5 e9 06 bf e7 e9 06 3f
       -0.52700645 0.52700657
