Sign Language Model trainer/sign_language_id.pt (torch, 104863 bytes, 4 tensors)

i2h.weight f4 [128, 185]
000000 87 dd 0e 3c f4 08 86 bb 0a f3 36 3c ae f4 8a bd
       0.008719808 -0.0040904228 0.011166343 -0.0678495
000010 b9 62 d5 3c 69 e8 04 bb 13 32 5b bd d9 7a 8a 3d
       0.026048051 -0.0020280129 -0.05351455 0.067617126
000020 a1 9c 27 3e 90 c3 a4 3d 86 17 0c 3d db bc 00 3e
       0.16368343 0.08045113 0.03420212 0.12572043
000030 39 5a 83 3e 3c 17 56 bd 0e 7f 08 bd db 41 78 3d
       0.25654772 -0.05226825 -0.033324294 0.06060968
000040 f2 ce e9 3c 67 71 27 bd 30 21 bc bc 75 2f bf 3d
       0.028541062 -0.040879633 -0.022965044 0.093352236
000050 94 9d 01 3e 1a b7 a5 3d 67 17 89 3d fb d1 d5 bb
       0.12657768 0.080915645 0.06693917 -0.0065252758
000060 7b 8a 6f be ee b7 3d 3d 23 cb 42 3d 29 16 90 bb
       -0.2339267 0.046317987 0.047557008 -0.004397173
000070 a0 2a 0e bd cf 2d 71 3d fa d5 64 bd 69 5f 02 3d
       -0.03470862 0.058881577 -0.055868126 0.03182927
000080 e0 f2 67 bd b6 50 5f bc a2 cd 26 3c a5 d2 ab bc
       -0.056628108 -0.013630083 0.010180863 -0.020974467
000090 c9 d0 8e bd 6f 96 57 3c 15 0a af bb 81 e1 86 3a
       -0.06973416 0.013158425 -0.005341778 0.0010290594
0000a0 44 bf 88 3c 33 94 0d bd 44 ef 8d bb 09 79 33 bb
       0.016692765 -0.034565162 -0.004331501 -0.0027385375
0000b0 fb 91 50 bd 5f 7b 96 3c 43 d7 0e bd 00 03 10 bd
       -0.050920468 0.018369375 -0.03487326 -0.03515911
0000c0 25 4a 33 bd d1 02 51 bd 0d 48 8a 3c 95 6d 92 bb
       -0.04377188 -0.051028077 0.01688006 -0.0044686296
0000d0 de e6 43 bd 29 b3 2d bd 65 a7 5a bd 05 c5 95 bc
       -0.047827594 -0.04240719 -0.053382296 -0.018282423
0000e0 ba fa 94 bc af a0 25 3c f5 ad e7 3c f6 8a 2a bd
       -0.018185962 0.010109111 0.028281191 -0.04163643
0000f0 77 ec 06 bd d3 6b ec bc d8 16 88 bd 56 f8 b5 3d
       -0.032940354 -0.028860008 -0.06644982 0.08885257
000100 e1 1f ed 3d 64 bf 19 3d 62 f8 f7 bc db 92 a9 3d
       0.11578346 0.03753604 -0.030269805 0.082799636
000110 2e b8 3d 3d 92 e1 eb bc 28 1e 94 bd b0 4e e3 3b
       0.046318226 -0.028794084 -0.07232314 0.0069368705
000120 f6 d9 01 bb 30 65 19 bc f7 4e b5 bd 31 35 0a 3d
       -0.0019813753 -0.009362504 -0.08852952 0.033742134
000130 d7 db 96 bd b5 d0 c8 ba 6e dc 9b b9 cb c2 46 bc
       -0.0736615 -0.0015320989 -0.00029728137 -0.012131403
000140 81 bd 65 3d 46 ed d2 bc 17 52 26 bc d1 6f 06 bd
       0.056088928 -0.025747906 -0.010151408 -0.03282148
000150 76 a3 86 3c 47 31 62 3d 4b ae ac bc 48 dc 5d 3d
       0.016435366 0.055222776 -0.021079203 0.054165155
000160 3e 4e b2 bd cd 9b bb bd cb 1a 3a 3d 84 e3 57 3c
       -0.0870633 -0.09160576 0.045435708 0.013176803
000170 55 fa 81 bb a3 99 82 3d d4 5a 7f bd 64 f7 80 3b
       -0.0039666095 0.0637696 -0.06234248 0.0039357413
000180 b8 ea e0 3d 34 34 9f bd 93 20 11 bd 1a 67 51 39
       0.10982269 -0.07773629 -0.035431456 0.00019970202
000190 82 6f 31 bd 8d 3e ec bc 1c ca 7d 3d bd 9a 52 bc
       -0.043319233 -0.02883842 0.061960325 -0.012854275
0001a0 bc 36 45 3d 25 d1 20 3d 34 45 3c ba c7 5b 8c bd
       0.048147902 0.039261956 -0.0007181943 -0.06853443
0001b0 f6 b7 03 bd d1 2d 13 3d f4 a6 36 3c 6b 8e b5 bd
       -0.03215786 0.035932366 0.011148203 -0.08865055
0001c0 b5 fb 3b 3c e7 ac 85 3c 11 33 87 ba 6b 24 34 bd
       0.011473586 0.016317798 -0.0010314902 -0.043980043
0001d0 ab 53 cf 3d 8e 9b 7c bd 46 90 c5 bc 8e a3 c1 ba
       0.1012338 -0.061671786 -0.024116646 -0.0014773475
0001e0 7d 58 b9 3c 12 9e 53 bd 9e ad ff bb cb 57 db bc
       0.022625202 -0.05166442 -0.007802679 -0.026775261
0001f0 7b 37 c8 bd 47 6e 90 bd 71 a8 40 3d 5e 00 89 bd
       -0.09776207 -0.07052284 0.04703564 -0.06689523
000200 c4 c1 d6 bd b0 08 c1 3c 0b e0 d4 bb 1b 55 36 3d
       -0.104861766 0.023563713 -0.0064964346 0.044514757
000210 99 17 3a 3d 4c 00 8f bd 3b c0 8e bc 72 b3 24 bc
       0.04543266 -0.069824785 -0.017425647 -0.010052549
000220 6c bd 5d 3b d5 35 ce bc 92 a1 c9 bc 2c 86 e2 bb
       0.0033834828 -0.025172153 -0.024613176 -0.006912967
000230 64 cd 19 bd 26 3f a2 3d 2c 7a 9b bd 0a a5 6a bd
       -0.03754939 0.07922201 -0.07591662 -0.0572863
000240 f3 a6 50 3d a6 f3 b9 3d bd 51 81 3c 6b 28 42 3d
       0.050940465 0.090796754 0.015786046 0.047401827
000250 ef 7c 07 3d c1 1a 92 3d 78 1a 3a bd ae de 64 bd
       0.03307813 0.07134009 -0.0454354 -0.055876426
000260 d4 d2 c2 3d 9a 54 83 3c 72 f6 48 bd 76 e9 e5 bc
       0.095128685 0.016031552 -0.049063154 -0.028065424
000270 33 53 a0 3d 28 dc ed bc 42 5b a6 bd 1a 28 6e bb
       0.07828369 -0.029035643 -0.08122875 -0.003633982
000280 b2 3f 3c bd 14 b5 7f 3d 2c 8c eb 3c 85 e5 47 bd
       -0.045959182 0.06242855 0.028753363 -0.04880287
000290 86 2f 10 3e 79 de ad bc 8d 9d 00 3e 3e 29 2b 3a
       0.14080629 -0.021224247 0.12560101 0.0006529278
0002a0 ec 1d 70 bd 29 69 56 3d 5e a0 4d 3d 69 45 b1 3c
       -0.058622286 0.052346382 0.050201766 0.021639543
0002b0 07 06 88 bc 43 e3 bc 3d bf ab eb bb 2b e6 f4 bd
       -0.016604437 0.09223034 -0.0071921046 -0.119579636
0002c0 2e c1 35 3d f1 c8 f9 bc ee 9b 37 3c 22 0b 43 bc
       0.044373684 -0.030491324 0.01120661 -0.01190451
0002d0 62 d3 99 3d 9d b8 a1 bd 2f 40 54 bd 1e f3 56 bd
       0.07511021 -0.0789654 -0.051819023 -0.05247795
0002e0 8d 9a ff bc 29 79 72 bd fc 5f f5 bc 91 68 70 3d
       -0.031201625 -0.05919758 -0.029952995 0.058693472
0002f0 87 ac 88 3d 3a 2f 2a be 5c db 18 bc 8b 64 65 3d
       0.06673532 -0.16619578 -0.009329643 0.05600409
000300 60 8f 58 bc 7d c8 54 3e 63 1a 16 bd 11 a2 66 3d
       -0.013217777 0.20779605 -0.036646258 0.056306902
000310 3d d2 95 3d 34 8e 22 3e 41 c8 90 bd 32 5d ee bc
       0.073154904 0.15874559 -0.070694454 -0.029097173
000320 ee 11 09 3d 40 f7 bd 3c 5c 2d 7c bd 0d aa 01 bd
       0.033464365 0.023189187 -0.061566696 -0.031656314
000330 e6 34 2a bd 35 b9 97 3d 19 93 cc bd e4 6e 00 3d
       -0.041554354 0.07408372 -0.09988994 0.031355754
000340 57 e0 63 bd 97 97 3c be ca 98 90 3d 04 fc 11 3d
       -0.05563387 -0.18417202 0.07060392 0.03564073
000350 09 23 30 bd a6 8b ba bb ad 1f 95 3d b7 b5 8d 3d
       -0.043002162 -0.005692917 0.07281432 0.06919425
000360 5c 81 89 bc 40 7f c9 3a ac 6f 85 3d 4d 67 31 bd
       -0.016785316 0.0015373006 0.0651544 -0.043311406
000370 c3 84 09 bd 2c 74 03 3d a0 dd 81 3d d5 bf bc bc
       -0.033573877 0.032093212 0.063411 -0.023040691
000380 fc 89 f5 bc a5 80 93 bd cc fd 04 3d 6d bf 00 3d
       -0.029973023 -0.07202271 0.032468602 0.031432558
000390 57 a9 2e 3d b0 2e 43 3d 7d 29 36 bd f2 2d 8f bd
       0.042641964 0.047651947 -0.04447316 -0.06991185
0003a0 3b e6 7d 3d f7 ff 0a 3d 2e 6f 5c 3c b5 88 82 3d
       0.061987143 0.033935513 0.013454242 0.06373731
0003b0 92 95 0e 3c 5e 1f 29 bd c9 c3 6d 3d 9b c4 f7 3c
       0.0087026525 -0.04128968 0.058048043 0.030245116
0003c0 ac f9 ba bc 3f 47 31 bd 87 8a 1c 3d 71 8b b1 3d
       -0.022824131 -0.043280836 0.038218047 0.086691745
0003d0 69 40 9a bd 6a a6 bb bc 40 3f 0f 3b a0 5d d4 3c
       -0.075318165 -0.0229065 0.0021857768 0.02592355
0003e0 0d 31 13 bd d3 03 51 3d 2f 38 4e bd f4 73 89 3d
       -0.03593545 0.051029038 -0.05034655 0.067115694
0003f0 1f 41 07 3c 16 3f 5e 3d 80 f7 54 3d 89 96 8f 3d
       0.008255272 0.054259382 0.051993847 0.07011134

i2h.bias f4 [128]
000000 3a fc af 3e 96 72 07 be 42 65 02 be a0 11 72 be
       0.3437212 -0.13227305 -0.1273394 -0.23639536
000010 52 3c a4 bd 12 63 b2 bb 1b 44 24 3e 4a e9 bd 3e
       -0.08019318 -0.005443939 0.16041605 0.37092048
000020 fc d1 8a be 31 35 02 bd 82 b1 69 3e a4 b6 23 3e
       -0.2711333 -0.03178901 0.2282162 0.1598764
000030 40 6b 75 be c9 b6 86 3d 15 7b 78 3d 81 e4 b6 3c
       -0.23966694 0.06577832 0.060664255 0.022325756
000040 41 e8 c4 3c e2 e8 a8 be ea 34 67 be d0 e8 5a bd
       0.024036529 -0.32990175 -0.22578779 -0.053444684
000050 bb 87 03 3e 1c 65 29 be ee 45 50 3e f1 54 87 bd
       0.12844746 -0.16542476 0.20339176 -0.06607998
000060 be f3 cb bd 58 fd d4 3d ec 8c 2d 3e ac b9 de bc
       -0.099585995 0.10399884 0.16948289 -0.027188145
000070 63 0b a9 3d 31 27 8e 3e 08 0b e6 3d 4e e0 f6 3c
       0.08254125 0.27764276 0.11232573 0.030136254
000080 d7 74 1e 3e 82 04 b4 bd 39 81 8e 3e 35 ad 3f be
       0.15474258 -0.08789922 0.27832964 -0.18718417
000090 8d 05 3d be 81 71 8b 3c 87 83 f2 bd 3e 0e c5 3e
       -0.18459149 0.017021896 -0.11841493 0.38487428
0000a0 18 26 d9 bd ef 9f d7 bd 21 bb 8b bc 2a 4f 33 3d
       -0.10602969 -0.10528552 -0.017057003 0.04377667
0000b0 e8 32 f2 3d b6 bb 41 be 0b 49 d6 bc 55 09 c9 bd
       0.11826116 -0.18919262 -0.026157876 -0.09816233
0000c0 a8 b7 ba 3c d1 6b a5 bd f0 f2 65 be 9e b8 00 3d
       0.022792652 -0.08077205 -0.22455955 0.031426065
0000d0 86 07 bc 3d b7 72 6a bd 6c d1 00 bd 17 ed 08 3e
       0.091811225 -0.057238307 -0.03144972 0.13371693
0000e0 37 f0 2c be 17 81 24 3e eb 8d 0d 3e 44 90 06 bd
       -0.1688851 0.16064869 0.13823669 -0.032852426
0000f0 be 41 29 3e 34 72 39 be 03 5f fb 3d 48 19 95 3e
       0.16528985 -0.18109971 0.122739814 0.2912085
000100 ea 4e 22 be 37 a7 42 be 16 6b a4 bd 10 50 33 be
       -0.15850416 -0.190091 -0.080282375 -0.1751101
000110 34 79 1d be 5d d8 11 bd 1f 43 52 be 17 e0 47 be
       -0.15378267 -0.03560673 -0.20533417 -0.19519077
000120 cb 85 1c bd a4 c0 b0 be 57 58 d0 ba d0 88 2d 3e
       -0.038213532 -0.34521973 -0.0015895468 0.16946721
000130 32 bd 66 be 55 2d da bd 55 2b b3 3e c9 9f 70 3c
       -0.2253311 -0.10653178 0.34993997 0.014686533
000140 20 88 38 3d 15 b8 69 3d ea 54 ba bd 2a e5 9f bd
       0.045051694 0.05706032 -0.09098227 -0.078073815
000150 12 ed 87 3c 92 50 0f be 35 81 90 3d 51 f6 d3 3d
       0.016592536 -0.13995579 0.07055894 0.103497155
000160 f5 45 b6 3e 4c 32 9a 3e 74 70 0a be fd a5 de 3d
       0.35600248 0.30116498 -0.1351946 0.108715035
000170 34 4e ef 3d 7f 15 85 bd 8c 1b 53 be a6 f6 80 3e
       0.11684838 -0.06498241 -0.20615977 0.25188178
000180 a0 c4 76 3e c1 57 8b 3d 37 f5 23 bd 82 db 97 3d
       0.24098444 0.06803847 -0.040028777 0.07414915
000190 bc 0d 21 be d5 68 ce bc c4 17 70 be 17 0f 1f 3c
       -0.15727895 -0.025196472 -0.23446566 0.009708188
0001a0 94 60 25 3e 02 6f 33 3d 5d 68 8d be e7 2a c5 3e
       0.16150123 0.043807037 -0.27618685 0.38509294
0001b0 40 b9 fb 3a 47 cf ef 3e aa 94 eb 3d c1 37 49 be
       0.0019204989 0.46837828 0.11502965 -0.19650175
0001c0 2c 4d d2 3d a9 48 60 3e af ab 25 be 6f c9 18 be
       0.102686256 0.21902718 -0.16178773 -0.14920591
0001d0 19 7c 41 bd 26 9d 85 3e b0 04 70 be 35 1f 87 3b
       -0.04723749 0.26096457 -0.23439288 0.004123593
0001e0 94 11 0e 3e fa d5 c9 3e 2b 8c 8f 3d 28 ad 8c 3b
       0.13873893 0.39421064 0.07009157 0.004293103
0001f0 7c 29 38 bd 07 be b4 3c 3e 81 3d bd 13 b1 17 bd
       -0.044961438 0.022063268 -0.046265833 -0.037034106

i2o.weight f4 [11, 185]
000000 e4 31 62 3d 45 2e ad 3c f9 6b 13 bd f7 91 c2 bc
       0.05522336 0.021140227 -0.035991643 -0.023751242
000010 f2 94 53 3d 36 e3 90 3c 91 28 c8 3c ae 2a 14 3d
       0.051655717 0.017686468 0.024433406 0.036173515
000020 fd 7d b5 bd d3 03 20 bd d2 5f 26 bd d6 8a 8e 3b
       -0.08861921 -0.039066147 -0.040618725 0.0043500466
000030 1b a6 8a bb 8d 6a c9 3c 1c 12 17 be e4 5c 91 3c
       -0.004231227 0.02458694 -0.14753002 0.017744489
000040 8a 58 94 bd 1d 8e 55 be e6 53 25 be b7 1c 94 3d
       -0.0724345 -0.20854993 -0.16145286 0.072320394
000050 32 f1 b9 bd d3 d6 7a ba 35 05 f6 3c 4e e4 df bb
       -0.090792075 -0.00095687545 0.03003178 -0.006832636
000060 8f 68 92 3d ae a4 d9 bc a5 5f b0 3c bd ef 6a 3d
       0.07148849 -0.026567783 0.021529982 0.05735754
000070 9a b0 79 bd 75 9a 42 bd ce b8 6d bd 15 0a 84 3b
       -0.060959436 -0.047510583 -0.05803757 0.004029522
000080 29 cc 95 3d 05 99 a1 bc b4 75 07 bd 64 d2 84 bd
       0.07314331 -0.019726286 -0.033071235 -0.06485441
000090 30 2e c7 3c bc e9 f9 bc 30 98 13 bc 8e 56 d4 3c
       0.024314016 -0.030506961 -0.009008452 0.025920179
0000a0 21 3d 87 3d e5 b1 81 3d d1 2b bd bc 90 84 26 3d
       0.06603456 0.06332759 -0.023092182 0.040653765
0000b0 05 f2 37 3c 72 b4 d6 bc 15 70 13 bc 22 5d bd 3c
       0.011227136 -0.02620909 -0.00899889 0.023115698
0000c0 41 f3 58 bc 80 39 8a 3d c3 ab 1c 3d 56 c9 c7 3c
       -0.01324159 0.067492485 0.038249742 0.024387997
0000d0 ec a4 d1 3c 25 68 3e 3c 15 49 3e 3c c9 99 dc 3c
       0.025591336 0.01162151 0.011614104 0.0269288
0000e0 4b a0 1d bd 49 77 f9 bd 27 e2 cc bd f7 63 2f bd
       -0.038482945 -0.12180955 -0.10004073 -0.042819943
0000f0 3d e0 9f 3d 2b 58 40 3d 7a 5c 36 3e 80 df fc bd
       0.07806442 0.046959084 0.17808715 -0.12347317
000100 93 76 1b be 57 f3 81 3e 98 dd 93 3d 30 40 10 bd
       -0.15181951 0.25380966 0.0722 -0.035217464
000110 c7 6e a0 3b 92 30 06 bd 37 6e ba bd 96 37 cd bd
       0.004896018 -0.032761164 -0.09103053 -0.10020368
000120 d0 ed 2a 3d 4a 7c 7f bd a5 be 13 3e a9 f1 69 3d
       0.041730702 -0.06237439 0.14428194 0.05711523
000130 82 94 5e 3e 48 33 a8 bd 50 ed 36 3d d6 02 ca bc
       0.21736339 -0.08212906 0.044659913 -0.024659555
000140 eb 21 5b bb fe 8b 81 bd 45 81 ab bd 76 88 0a bd
       -0.0033436965 -0.063255295 -0.083742656 -0.033821546
000150 31 11 c2 bd 4b 91 11 be f6 04 27 be 73 60 b8 bc
       -0.09475935 -0.14215581 -0.16310486 -0.022506928
000160 7c 1c 95 bd c9 61 28 3e bf 57 92 3d 96 d3 a5 bd
       -0.072808236 0.16443552 0.071456425 -0.080969974
000170 aa af 73 3c 5d 42 04 be e6 c5 2f bd 7f 28 49 3e
       0.014873425 -0.1291594 -0.04291334 0.19644354
000180 45 de e2 bd 17 ce 7c bd c6 bb ca 3a 2e e9 dd 3c
       -0.11077551 -0.06171998 0.0015467338 0.027088728
000190 8d 6b 3a 3d f8 62 bd 3d f4 f2 bc bc 81 5c 6f 3d
       0.045512725 0.092473924 -0.023065068 0.058437828
0001a0 4f 31 72 3c 31 65 e0 bd e6 78 2a be 77 f5 94 bd
       0.014782264 -0.10956801 -0.16647682 -0.07273381
0001b0 47 a3 14 bd 47 10 92 3d b6 1b cd 3d 28 2d 16 3e
       -0.036288526 0.07132011 0.10015051 0.14665663
0001c0 45 29 38 bd dd 67 73 3d 04 dd a0 bd 08 a0 ad 3d
       -0.044961233 0.059425224 -0.078546554 0.08477789
0001d0 65 31 33 be c9 68 d8 bd 1a 99 ed 3d 31 ac 4a bd
       -0.17499311 -0.10566861 0.116014674 -0.04948062
0001e0 e8 56 0e 3e 19 b9 b7 bd db 8a 26 3e a8 f4 57 3c
       0.1390034 -0.089708515 0.16263907 0.013180889
0001f0 8e f4 3d bb 6b d7 3a 3b ca d7 de bd 96 9f d3 3d
       -0.0028984877 0.0028509747 -0.10881002 0.10333173
000200 ff 13 35 3e 37 ea 0b be f4 85 dc 3d bb ed 5b bd
       0.17683409 -0.13663565 0.10767737 -0.053693514
000210 a5 10 cf bd 40 62 1e 3e 1c ac 1a 3d 64 0e 01 be
       -0.101105966 0.15467167 0.037761793 -0.12603146
000220 f9 bb 57 3c b6 6b e7 ba 7e 95 83 3d e1 39 b8 3d
       0.013167375 -0.0017656002 0.06424998 0.089954145
000230 e6 75 f5 3d 04 38 b8 bc a1 1a 39 3e ee 60 b9 bc
       0.11985378 -0.022487648 0.18076564 -0.022629227
000240 9a 02 38 3d 2a 82 d9 3d 5b 52 f5 3c 3e aa 6f bc
       0.044924356 0.1062053 0.029946497 -0.014627991
000250 80 28 08 3d 06 0b d9 3d a4 a9 5e 3e 65 2f 98 3d
       0.03324175 0.10597806 0.217444 0.07430915
000260 67 3d 55 bb f8 56 38 be 8d f2 c9 bc c3 db 13 bd
       -0.003253782 -0.18001926 -0.02465179 -0.036098253
000270 fa 41 e2 3d ee c8 46 bd 6c 28 1e 3e 52 da 2f 3d
       0.1104774 -0.048531465 0.15445107 0.042932816
000280 53 cb c2 3d 32 c7 46 3d c7 e8 57 bc 71 bc 22 bd
       0.09511437 0.04852981 -0.013178057 -0.039730493
000290 c0 54 8c bd 66 30 b0 bb c3 99 5e be 58 0f 00 3e
       -0.06852102 -0.0053768633 -0.21738343 0.12505853
0002a0 93 03 23 3e 0f 9b 6e 3d d5 ba fc bd 79 73 d9 3d
       0.15919332 0.058253344 -0.12340323 0.10617728
0002b0 17 53 aa 3d 58 eb 1d bd 9f 88 24 be d3 2f bc 3d
       0.083166294 -0.03855452 -0.16067742 0.09188809
0002c0 22 81 90 bd b1 56 8f bc 70 3c 8a bd 2e bc b1 bc
       -0.0705588 -0.017497392 -0.06749809 -0.021696176
0002d0 02 1b 8a bd 19 10 3b 3d 85 f8 5e bd 0b 5c 6e 3e
       -0.067434326 0.04566965 -0.054436225 0.23277299
0002e0 31 62 08 be 1a 64 2b be 9f 1e 32 3d 12 1a 57 bd
       -0.13318707 -0.16737404 0.043486234 -0.052515097
0002f0 84 ff 68 3d 8e 91 4b be bf 31 04 3c 5a 02 d2 bb
       0.056884304 -0.19879743 0.008068501 -0.0064089717
000300 d2 5a 74 3d 0f bd 5b bc 41 44 e2 3b d0 2f e0 bc
       0.059656925 -0.013411774 0.006905109 -0.027366549
000310 76 15 7f 3d 70 b3 08 3d bf e5 84 3c 96 c5 3c 3e
       0.062276326 0.03337425 0.016222833 0.18434748
000320 a2 6f 23 3d 56 fb 21 bd a6 a5 c9 3d e5 3c 99 bd
       0.039901383 -0.039546333 0.09846048 -0.07482318
000330 68 32 48 3d 8e 51 c4 bd 36 f9 4f 3d c1 4f de bc
       0.048876196 -0.09585868 0.050774775 -0.027137639
000340 e9 77 84 bd 97 43 a1 bc 08 d9 7c bc db e8 d1 bc
       -0.064681835 -0.01968555 -0.015432604 -0.02562373
000350 93 d5 66 bc 01 4c 85 3d e8 18 81 bd 2a 6f 2e 3d
       -0.014089006 0.06508637 -0.063035786 0.042586483
000360 f0 0e 26 3d 2e 31 46 bd 8b 18 f6 ba fd ad 69 3d
       0.04054159 -0.048386745 -0.0018775625 0.057050694
000370 77 dd 91 bd a3 87 f7 bc 30 a2 c9 bc 0e 98 84 3d
       -0.07122319 -0.030216044 -0.02461347 0.06474315
000380 22 64 83 3d ae 87 b0 3c 8e d6 b3 3b 58 4c 4f bc
       0.06415583 0.021549072 0.0054882234 -0.012652479
000390 29 ae 5b 3d 44 a7 cc bc 7c ce 13 3d e3 a2 1e bd
       0.05363289 -0.024982102 0.03608559 -0.03872956
0003a0 07 c4 64 3d 23 a4 77 3d a6 fa 26 bd ab fb d5 bc
       0.05585101 0.060459267 -0.04076638 -0.026120981
0003b0 a4 a5 90 3d 80 0b 2a bd 7b 13 95 3d 8d 88 45 3d
       0.070628434 -0.041514874 0.07279106 0.048225928
0003c0 a0 a5 33 3c 32 18 57 3d c6 b7 13 be f4 9a 5c 3e
       0.010964781 0.05251331 -0.14425573 0.21543485
0003d0 18 16 f2 3d b6 e7 23 3d 67 58 89 be c8 7d a2 3b
       0.1182062 0.0400159 -0.26825258 0.004958842
0003e0 bb 3a 89 bd 90 51 03 be 31 07 0a 3e bc 60 cf 3d
       -0.06700655 -0.12824082 0.13479306 0.101258725
0003f0 72 e5 45 bd 79 46 92 bc 33 7b fe 3d 41 ff 6d bd
       -0.04831452 -0.01785587 0.12425842 -0.058104757

i2o.bias f4 [11]
000000 bc 08 ad be 03 cd 9b be a4 50 71 bb 26 74 82 be
       -0.33795726 -0.3042985 -0.0036821747 -0.2547924
000010 5d f6 c2 bd 5f 0e b6 bd 15 4e fb 3e 69 3e 08 be
       -0.09519646 -0.0888946 0.4908301 -0.13305058
000020 69 3d 1f 3f b9 27 b5 be 39 7a 04 3f
       0.6220308 -0.35381868 0.51748997
