AI Builders/Sign Language Model trainer/sign_language_id.pt (torch, 104863 bytes, 4 tensors)

i2h.weight f4 [128, 185]
00000000: 08c3 6bbe 9588 6fba c18c 823d e536 edbd
00000010: 2db7 eeba 34ec 613d 9c1c 753d 6ce1 623d
00000020: bb58 ae3c 1cd8 253c 106a ca3c 8335 db3d
00000030: a42c a9bd efe0 dcbb a28c 1e3d b6dc 2bbd
00000040: 4ad4 30bd a6a1 99bd a6d1 9d3d 9c70 aa3d
00000050: 9fc7 1f3d d605 d3bd 905a 7ebd 5c81 f2bc
00000060: 3fcf 103e ee9c 863d a6aa 82bc 8086 87bb
00000070: 02a9 38bd 542b 3a3d 608a 42bd c6a7 373d
00000080: 325c bebc 30ae b2bc f4ff 0ebd d465 8c3c
00000090: 4760 4ebd caa2 9cbc ccb8 8a3d 92b9 c0bc
000000a0: 8e50 b9bc aa5e 93bd ce63 963d a27e 35bd
000000b0: c892 563d 8c45 3c3d 200f 6dbd ecc7 2e3d
000000c0: 9eb0 273d 9c87 3ebc 00de d33c 4019 0a3d
000000d0: f411 17bd d029 933d 6853 803c 10e7 1f3c
000000e0: 70ee b5bb 5356 00bd d3e9 c53d e22b 70bd
000000f0: d852 06bd 7f01 8d3d 5c4f f43c f471 a6bd
00000100: 0712 fbbc 36c6 45bd c4a5 cabd a6f6 923d
00000110: 445a 1cbd 80ac 0c3d 910c 47bd 19ae 48bd
00000120: 9c92 d03c 016c 8e3d 45ad 773d c4c0 51ba
00000130: fc32 1ebd 9d45 493d cd9f d93d 448a c93c
00000140: f6ce 1dbd 7444 373d d390 c53c 415c 293d
00000150: 57dd 833d f937 853d 12c4 d23d 4150 fabc
00000160: 03da 483d a61f 7b3d 7f75 31bd 89dc 7b3c
00000170: b025 38bd c0aa 303d 8c07 6fbd 3a8d 5dbd
00000180: 5fdf 333c 266b 75bb 63cc 00bd 7de4 18ba
00000190: 9f2a 603c 61e8 913d cbc4 23bd 4bea 603c
000001a0: 2f16 053b 8986 9fbd ad25 87bd 79e1 e039
000001b0: e738 303c 699e 1dbd 16aa 57ba 8098 343c
000001c0: 1efd 97bd 17ef 493d 5375 9b3d 349e 4cbc
000001d0: a801 3e3d 750c a23c 197c 763c f4fc 043d
000001e0: 0d2a 923d d578 10bd 5b68 3b3b 2976 73bd
000001f0: 66a5 08bd 88a1 843d 5df8 dfbc 71c7 5ebc
00000200: 326c e7bc f05e 38bd 5ffa 0d3c 1380 3c3a
00000210: 3518 7d3c d7bf 9dbd cb27 03bc b992 4cbd
00000220: 6c92 983d 0fbb cfbd 3df6 b53b 8ba4 923d
00000230: fde9 93bd 9f98 f0bc 1829 00bd 6cf7 fcbc
00000240: f39d 35bd f4f0 473d 2ce3 9d3c 02d2 0b3d
00000250: 61f0 503c 6f6f 663d 7896 363d 44c4 a13d
00000260: b37c 893c 1576 a03b e20f 75bd a215 8b3c
00000270: 1a0c 1b3b 0ed9 fa3b 3012 6abc e63d e83c
00000280: 3f68 523d 58bb 5c3d 4a47 0d3d b546 313d
00000290: 23d7 4dbd 62fc 01bd d1cd 93bc 44a6 693d
000002a0: 0a60 84bd 63e9 9dbd a81c 0e3c 14ea bf3d
000002b0: 609c de3b a916 5a3d 05d8 513b 2ae2 35bc
000002c0: a7a1 9abd 1a7b 38ba 701f f93c 1caf 1bbd
000002d0: 48ac 4d3d 8832 6c3d faa1 5ebc 35d7 823d
000002e0: b63f 56bd 7f27 ddbd 6ecb 1abe b2fb 57bd
000002f0: f47e 76bd db99 54bd fea1 8bbd 8461 82bc
00000300: 764a 143d 7459 553e 651e 92bc d05d 4ebd
00000310: f57d 783e b58e 483e 788c 79be c79f 883c
00000320: 8af0 e43d ed96 22bd 1e6d a0bc 1daf 7a3d
00000330: 0d34 223e ea1a a73d 0157 7c3c 6c45 923d
00000340: c462 3abc 7f22 293e 0ad0 0d3d 78d2 1b3d
00000350: a80d 243c 0624 86bd b82a 1b3c d98c 78bd
00000360: 9e49 203d 10f8 13bc a092 6d3b 4053 543b
00000370: 3e8b 54bd b017 8bbd ecf6 8e3d c8de 3e3c
00000380: 4d7b 31bd 5a3f 183d 988c b23c 5f8f 84bd
00000390: 844b 703d e0e4 263c 089e 1dbd 0874 41bd
000003a0: dbf8 7fbd 089d c03c 55dd 95bd 5cfb 3cbd
000003b0: aef1 72bd 94bd 84bd e43b 9abc d0ea 4cbd
000003c0: c006 b43a ea5c d5bc f4d5 9b3d 3f35 cc3d
000003d0: 58a1 56bc 2087 98bd 617d d13c 1026 233b
000003e0: 67e7 ddbb f199 a23d e237 ebbb 4b94 493d
000003f0: ecb4 99bd 7976 143d 1d0c 933c 84c6 163c
-0.23023617 -0.0009137479 0.06374503 -0.11582736 -0.001821255 0.0551569 0.059841737 0.05539076
0.021282544 0.010122325 0.024708778 0.10703566 -0.08260468 -0.0067406814 0.038708337 -0.041958533
-0.043171205 -0.07501535 0.07706003 0.0832226 0.039008733 -0.103038475 -0.062098086 -0.029602699
0.14141558 0.06572901 -0.015950512 -0.0041359067 -0.045083053 0.045451477 -0.047495246 0.044837736
-0.023237322 -0.021811575 -0.034912065 0.0171384 -0.050384786 -0.019120593 0.067735285 -0.023525987
-0.02262142 -0.0719579 0.07343255 -0.04431022 0.052386075 0.045964763 -0.057875752 0.04267113
0.04093992 -0.0116290115 0.025862694 0.033715487 -0.036882356 0.071857095 0.015664771 0.009759679
-0.0055521056 -0.031332325 0.09663739 -0.0586356 -0.03279385 0.06885051 0.029822998 -0.081272036
-0.030648245 -0.04828473 -0.098948985 0.07175951 -0.03817202 0.034344196 -0.04859597 -0.048994157
0.025460534 0.06954194 0.060467977 -0.00080014416 -0.03862284 0.049138654 0.10626183 0.024602063
-0.03852745 0.044743016 0.02411691 0.041347746 0.064387016 0.065048166 0.10291304 -0.030555846
0.049036037 0.06130948 -0.043324944 0.015372404 -0.044957817 0.04313159 -0.058356807 -0.054089762
0.010978549 -0.0037447899 -0.03144492 -0.0005832387 0.013682037 0.07124401 -0.0399826 0.013727735
0.0020307412 -0.077893324 -0.06598983 0.000428926 0.010755754 -0.03848115 -0.0008226944 0.011022687
-0.07421325 0.04930028 0.07590737 -0.01248889 0.0463883 0.01978133 0.015044236 0.032467797
0.07136927 -0.035271484 0.0028596136 -0.05943886 -0.03336086 0.06476122 -0.027340109 -0.013597355
-0.028249834 -0.045012414 0.00866565 0.00071907154 0.015447666 -0.07702606 -0.008005093 -0.049944613
0.07449803 -0.101431005 0.0055530355 0.0716029 -0.07222364 -0.02936965 -0.03128919 -0.030879699
-0.044340085 0.048813775 0.019273363 0.034135826 0.012752623 0.056258615 0.044577092 0.07898763
0.016783094 0.004896889 -0.0598296 0.016978089 0.0023658336 0.0076552695 -0.014286563 0.028349828
0.051368948 0.053889602 0.034491815 0.043280322 -0.050254 -0.03173483 -0.018042477 0.05704333
-0.064636305 -0.077105306 0.008673824 0.09370819 0.0067935437 0.053244267 0.0032019627 -0.011101285
-0.07550364 -0.00070373865 0.030410498 -0.038008794 0.05021313 0.057665378 -0.013588423 0.06388704
-0.052306853 -0.10798549 -0.15116665 -0.05273027 -0.060179666 -0.05190454 -0.06818007 -0.01591564
0.036203824 0.20834905 -0.017836759 -0.050382435 0.24266799 0.19585688 -0.24369991 0.01667775
0.11178692 -0.039694715 -0.019583281 0.061202157 0.15840168 0.0815943 0.015401603 0.071421474
-0.011376087 0.16517065 0.03462223 0.038042516 0.0100130215 -0.0654984 0.009470634 -0.060681198
0.039132707 -0.009031311 0.0036250725 0.0032398254 -0.051890604 -0.067916274 0.0698069 0.011649795
-0.04333048 0.03716979 0.021795556 -0.06472658 0.058665767 0.010186404 -0.03848079 -0.047229797
-0.062493186 0.023512378 -0.07317606 -0.046138152 -0.059312515 -0.06481472 -0.018827386 -0.050028622
0.0013734922 -0.026045281 0.07609168 0.099710934 -0.013099991 -0.07447648 0.02557248 0.0024894513
-0.00677197 0.07939518 -0.0071782926 0.04921369 -0.07505211 0.036245797 0.017950112 0.009202603

i2h.bias f4 [128]
00000000: bad9 233d 0a0f 8e3e e346 74bc 994e 81be
00000010: 8385 113d dc55 8c3d e728 49be 1772 15be
00000020: b703 4e3e 94fd 513e 2d05 a4be c0a9 4b3d
00000030: 8497 923d 553a 7b3d ff01 f93c 416c be3d
00000040: e86e 8abd d3c8 5ebc 421b c3bc 44eb a13c
00000050: b391 063e 311f 38bc b580 db3e 86bb 713e
00000060: b723 a03a ea8f ab3e 1ebc 61be 67ca 4cbe
00000070: 8331 2ebe 4b5b 1fbd b155 513d e0bf 323c
00000080: 6129 883e 7291 5cbc f4cd 183e 2b0b 7d3e
00000090: 93bd 85be 7fd4 fe3d 82fa 5e3b 360e 073c
000000a0: 863f d8bd c076 78be af2e 10be e5c3 0abe
000000b0: da28 2dbd 2934 2dbe c055 a3be 06b3 c8bd
000000c0: 5270 ed3d d497 90bd 316b 3abe 29be 30bd
000000d0: fea9 19be 3bfd 863d 5ff2 103e 13fc 1fbe
000000e0: ebf2 c6be e872 d7be 2b6c 713e e29a 86be
000000f0: 5903 4cbe 6b2c c53d 4356 6c3e e158 0cbe
00000100: b82b bcbe 218c 17be 5013 0b3e d12f 8fbd
00000110: 53c5 063e f140 e53e 4bc9 523e 7ebd 213d
00000120: c948 63bd dfab 893d 395c 49bd cbb4 313e
00000130: 37c1 64be b9c7 8cbc 6469 8dbe c67f debc
00000140: 5fe5 283e 67b6 a83e e66e 09be 433f 8dbe
00000150: 074b b23e 1ae5 74bd 5636 0b3e 0401 cb3e
00000160: 86d1 513e dddd 0dbe aef5 063e 4c75 9c3e
00000170: 6da5 8bbe 4a52 c1be bd22 743d 3044 08bf
00000180: 046c 18bc e99b d7bd 3c0b cbbd 3981 883d
00000190: 0dbf 803e 0961 f53b 9102 7a3e 428c 093e
000001a0: 537c 833e d787 463e b380 c13d 753d 923d
000001b0: bb55 1abd 8cc5 3a3e cd5f b9bd eede 32be
000001c0: 78ea 3d3d 4ffc 24bd 1dc7 78be bee2 a53c
000001d0: 82a2 83be 3ef9 a5bd 2597 343d b69c b73e
000001e0: 765f c9bd d0fc 6ebe 1665 73be 4c9d b9bd
000001f0: f69a f5bd d98a 453d 282e ad3d 2733 1d3e
0.040002562 0.2774585 -0.014909479 -0.25255278 0.035527717 0.06852314 -0.1964451 -0.14594303
0.20118605 0.20506889 -0.320352 0.049722433 0.071578056 0.061334927 0.03039646 0.092979915
-0.06759435 -0.013597685 -0.023816708 0.019765504 0.13141517 -0.011237905 0.42871633 0.23606691
0.0012217675 0.33508235 -0.22044417 -0.19999085 -0.17011075 -0.038905423 0.051107112 0.010910004
0.2659407 -0.013462411 0.14922315 0.24711291 -0.26121196 0.12442874 0.0034023826 0.008243134
-0.10558991 -0.2426405 -0.14080308 -0.1355129 -0.042275287 -0.16914429 -0.3190136 -0.09799771
0.11593689 -0.07060209 -0.18204953 -0.0431501 -0.15006253 0.06591269 0.14154957 -0.15623502
-0.38857207 -0.42079854 0.23576419 -0.2629004 -0.19923152 0.09627613 0.23079781 -0.1370578
-0.36752105 -0.14799549 0.13581586 -0.06991542 0.1316121 0.4477611 0.205846 0.039487354
-0.055489335 0.06722235 -0.049160216 0.17354123 -0.2233933 -0.017185079 -0.2761947 -0.027160536
0.16493748 0.32951662 -0.1342121 -0.27587327 0.34822866 -0.0597888 0.13594946 0.39649212
0.20490083 -0.13854165 0.13179657 0.3055824 -0.27274647 -0.37758094 0.05960344 -0.53229046
-0.009303097 -0.105277844 -0.09914252 0.06665272 0.2514576 0.007488374 0.24415042 0.1343241
0.2568079 0.19387756 0.094483756 0.07140628 -0.037679415 0.1823942 -0.09051476 -0.17467853
0.046366185 -0.040279683 -0.24294706 0.02024972 -0.2570992 -0.0810418 0.044089455 0.35861748
-0.09832661 -0.23338628 -0.2376903 -0.09063205 -0.11992447 0.04822812 0.08456069 0.15351544

i2o.weight f4 [11, 185]
00000000: f5e0 113e 1cc5 5a3d 4454 713d 9889 103c
00000010: 88e5 d93d 8fa7 06bd 50da fb3c 0015 303b
00000020: b595 87bd c2d5 263d ab38 05bd df45 3dbd
00000030: 94fb ffbc a8bc 47bd 3538 fdbd 3059 08bc
00000040: 8066 8cba 1238 26be cd26 9abd 0026 fdb9
00000050: ebdd e1bb a713 2abd dc64 723d 4cc9 6abd
00000060: c871 913c 28e5 233c 0457 25bd c0ad cdbb
00000070: ccdc 49bc 6d66 49bd d074 3dbd 18ac 91bc
00000080: b473 e53c 7426 7d3d 1cbf 8f3d dbd6 23bd
00000090: 40f2 973a 002e 10ba c070 d8bc f402 f23c
000000a0: c0a8 4f3c 405e 0d3d 20f4 86bb 823b 2e3d
000000b0: 0812 ec3c ec75 56bd ceb8 29bd b0de da3b
000000c0: 38d1 c83c 2803 933d 402e 803c 3071 613d
000000d0: 0c92 fdbc b714 0ebd 9c3e 5b3d a617 0a3d
000000e0: de0f 83bc 8755 2d3d d3a9 febd 4671 43bd
000000f0: 024c d93d d82b 2ebd c0c9 dc3d 856e 0d3e
00000100: 96ff 55bd 55af 07be 1ccb 313e ba25 713e
00000110: 172f 48bd 20e0 df3a 1bb1 9e3c 7233 c63c
00000120: d77b 613d aecb 2ebd cd9c a4bd d12e 3bbd
00000130: 484d 3cbd 117e 8b3d 9c49 2bbe 2e2e b0bd
00000140: 8c2c db3d 39e7 aabd db52 aebd fd26 82bc
00000150: f25b f33d abfd 09bd 6f5e 97bd 79a5 96bd
00000160: 4c2b ac3d 3423 18be 268f e83d 4472 c03b
00000170: 43c1 d1bd 2e4e c2bc 2cd7 133e 3cf8 463d
00000180: 13b0 fbbd a713 133e 5d76 3b3d 4511 143c
00000190: 833f 243e a7c0 49bc 42a0 2c3e ad2b 893d
000001a0: a371 8ebc 0b2c 7ebd d172 ff3d 157a e43d
000001b0: 63dc f93d be6e da3c 3202 553d 9e23 423c
000001c0: 7aa3 243c fde6 b83d f7d4 c63c 7390 97bd
000001d0: 1310 af3d 57fb ce3d 2b3d 50bc 8f7b 41be
000001e0: 5c58 363e 619b 7a3e ec31 09bd cc0f 49be
000001f0: 24d6 373e 762e db3d 45fd 3abe ae5f 5f3c
00000200: 4fe5 5dbd 441f 0ebe c40d e7bb d2e5 9b3d
00000210: 6b8a ffbd 50ff 743a 57cc 33bd c3e0 253d
00000220: f7d5 46be c5a0 07be 659b 32be 2dba a5bd
00000230: f0b5 4a3d 8da8 2bbd d1c2 f03d fca8 29ba
00000240: 74be a73d 7800 43bb fa6b 27bd f591 35be
00000250: 25e7 183d ce32 ca3c 175d 133e 6891 18bd
00000260: 53b8 083d 24db eebd cec7 16bd e06f adbb
00000270: 782f 163c d0aa 91bd 42d0 33be 57f4 3a3c
00000280: ec72 2ebe 4cf3 a0bd 592b 683c 6a52 243d
00000290: 9a85 9cbd 5228 5e3d 0c96 fe3c 7649 7e3d
000002a0: 9021 a83a 727e a33d 65ab ea3d b594 cb3d
000002b0: 5cf2 9cbd 740d 103e 857e 17bd 1afa 36be
000002c0: e89d c3bd 6dce 973c 5452 573e 2059 1f3e
000002d0: 6261 89bd 6327 2a3d 3cc7 71bd 6483 d03c
000002e0: f80f 2dbe a02d 11be 98de 943d 7ed3 1a3d
000002f0: 44f5 013d 5d84 2ebe 677d 25bd cc14 d93c
00000300: 8649 463d 42b5 3fbc b40a 65bd 303f 563c
00000310: e53c 19bd ec6b 603d f277 bcbc 8682 0e3e
00000320: 327c b3bc a2c6 8e3d 0cb7 0a3e 9237 adbd
00000330: e333 14bd a315 c0bd 20d6 0cbc b239 febc
00000340: 944b f03c ec3c e73c f472 ee3c 00ac d5ba
00000350: 5395 6fbd 9e58 36bd 46b4 0c3d b8be 813c
00000360: 0c22 5bbd 52c3 59bd b81e b53c 1cf2 26bd
00000370: d8a7 62bc 3ae8 83bd 3c06 10bd a8d3 463d
00000380: 2a92 7ebd 3aba 503d 8264 8cbc 3c84 373d
00000390: 58b1 f03c 95f9 60bd 202e 833c 08c6 ac3c
000003a0: 4c22 813c 9c4b 7fbd c1fe 6ebd c872 b2bc
000003b0: 64df a93c ec0d 5f3d 7042 553d 006d 2c3b
000003c0: 3efc 903d 3f95 8ebd b400 1fbd 37f2 f1bd
000003d0: 4440 acbc f6ee 863e 21b6 8b3c 3cc1 09bd
000003e0: 1fbc c2bc 043d 223d 34ff 38be 3365 6b3d
000003f0: e6a0 253e e372 1d3e 0b31 c63b b8dc 173e
0.1424597 0.053410634 0.058918253 0.008821867 0.10639483 -0.03287464 0.030743748 0.0026867986
-0.06620351 0.0407312 -0.032524746 -0.046209212 -0.031247891 -0.0487639 -0.12364236 -0.008322045
-0.00107117 -0.16232327 -0.07526932 -0.00048284233 -0.0068929098 -0.04152265 0.05917822 -0.057320878
0.01775445 0.010003366 -0.040366188 -0.006276816 -0.0123207085 -0.049169946 -0.04625398 -0.017782256
0.028009273 0.06180425 0.07018873 -0.039999824 0.0011592582 -0.00055000186 -0.02642095 0.029542424
0.0126745105 0.034513712 -0.0041184574 0.04253722 0.028817192 -0.052358553 -0.04143601 0.0066793784
0.024513826 0.071783364 0.015647054 0.055039585 -0.03095343 -0.034687724 0.053526506 0.03371396
-0.015998777 0.042317893 -0.12434735 -0.047715448 0.106102005 -0.04252228 0.10780668 0.13811691
-0.0522457 -0.13250478 0.17362636 0.23549548 -0.048873033 0.0017080344 0.01937156 0.024194453
0.055049744 -0.042674713 -0.0803772 -0.045698944 -0.04597214 0.06811155 -0.16727298 -0.08602558
0.10701856 -0.083448835 -0.08511897 -0.015887732 0.118827716 -0.033689182 -0.07391059 -0.0735578
0.08406696 -0.14857179 0.113554284 0.0058729965 -0.1024194 -0.02371892 0.1443755 0.04857658
-0.12289443 0.14362966 0.045767177 0.0090373205 0.16039853 -0.012313998 0.16858009 0.066977836
-0.01738817 -0.06205372 0.12473071 0.11156098 0.122002386 0.026664134 0.052004047 0.011849312
0.0100487415 0.090284325 0.024271471 -0.074005984 0.08547988 0.10106533 -0.012709896 -0.1889479
0.17807144 0.24473335 -0.033494875 -0.19634932 0.17952782 0.10702221 -0.18260677 0.013633652
-0.054173764 -0.13879114 -0.0070512015 0.07612194 -0.12477573 0.0009345906 -0.043896046 0.040497553
-0.19417559 -0.13244922 -0.17442091 -0.08092151 0.049489915 -0.04190879 0.11755908 -0.0006472019
0.08190623 -0.0029754918 -0.04087446 -0.1773146 0.03732981 0.024682429 0.1439098 -0.037248045
0.03337891 -0.116628915 -0.036811642 -0.0052928776 0.009166591 -0.07112658 -0.17559913 0.011410794
-0.17036027 -0.07858905 0.014170491 0.04011766 -0.0764267 0.05423767 0.031077407 0.062081777
0.0012827385 0.07983102 0.11458472 0.09940473 -0.07663414 0.14067632 -0.036985893 -0.17868844
-0.095516026 0.018531049 0.210275 0.15561342 -0.067080274 0.04154147 -0.059027895 0.025453277
-0.16900623 -0.14177561 0.07269019 0.03779935 0.031728044 -0.1704268 -0.040402796 0.026499175
0.04840996 -0.01170093 -0.05591841 0.0130765885 -0.03741159 0.054790422 -0.023006413 0.13916978
-0.021909807 0.0697148 0.1354639 -0.08457865 -0.036182296 -0.09379127 -0.008595973 -0.03103337
0.029332913 0.028227292 0.029107548 -0.001630187 -0.058492016 -0.044518106 0.03435161 0.015838012
-0.053499267 -0.053164788 0.022109374 -0.040758237 -0.013833962 -0.06440778 -0.035162196 0.048541695
-0.06215111 0.05095885 -0.01713777 0.044803843 0.02938144 -0.05492552 0.016013205 0.021090522
0.015763424 -0.062327966 -0.05834842 -0.021783248 0.020736404 0.054456636 0.052065313 0.0026310086
0.070793614 -0.0696206 -0.03881903 -0.11813777 -0.021026738 0.26354188 0.01705462 -0.03363155
-0.023771344 0.03960897 -0.18066102 0.057469558 0.16174659 0.15375857 0.006048327 0.14830291

i2o.bias f4 [11]
00000000: 0a69 acbe e572 5cbe e444 88bd 94f3 77be
00000010: 24ff 40be 04c8 00be 7dad de3e 4c28 67be
00000020: 01b7 4e3f ddf4 83be c478 003f
-0.33673888 -0.21528204 -0.06653765 -0.24214011 -0.18847328 -0.125763 0.43491736 -0.22573966
0.8074799 -0.25772753 0.50184274
